…
I0704 18:42:43.097941  5966 net.cpp:294] The NetState phase (0) differed from the phase (1) specified by a rule in layer accuracy
I0704 18:42:43.098062  5966 net.cpp:51] Initializing net from parameters: 
name: "AlexNet"
state {
  phase: TRAIN
  level: 0
  stage: ""
}
layer {
  name: "data"
  type: "Data"
  top: "data"
  top: "label"
  include {
    phase: TRAIN
  }
  transform_param {
    mirror: true
    crop_size: 227
    mean_file: "examples/semaphore/imagenet_mean.binaryproto"
  }
  data_param {
    source: "examples/semaphore/dataQY_train_lmdb"
    batch_size: 512
    backend: LMDB
  }
}
layer {
  name: "conv1"
  type: "Convolution"
  bottom: "data"
  top: "conv1"
  param {
    lr_mult: 1
    decay_mult: 1
  }
  param {
    lr_mult: 2
    decay_mult: 0
  }
  convolution_param {
    num_output: 96
    kernel_size: 11
    stride: 4
    weight_filler {
      type: "gaussian"
      std: 0.01
    }
    bias_filler {
      type: "constant"
      value: 0
    }
  }
}
layer {
  name: "relu1"
  type: "ReLU"
  bottom: "conv1"
  top: "conv1"
}
layer {
  name: "norm1"
  type: "LRN"
  bottom: "conv1"
  top: "norm1"
  lrn_param {
    local_size: 5
    alpha: 0.0001
    beta: 0.75
  }
}
layer {
  name: "pool1"
  type: "Pooling"
  bottom: "norm1"
  top: "pool1"
  pooling_param {
    pool: MAX
    kernel_size: 3
    stride: 2
  }
}
layer {
  name: "conv2"
  type: "Convolution"
  bottom: "pool1"
  top: "conv2"
  param {
    lr_mult: 1
    decay_mult: 1
  }
  param {
    lr_mult: 2
    decay_mult: 0
  }
  convolution_param {
    num_output: 256
    pad: 2
    kernel_size: 5
    group: 2
    weight_filler {
      type: "gaussian"
      std: 0.01
    }
    bias_filler {
      type: "constant"
      value: 0.1
    }
  }
}
layer {
  name: "relu2"
  type: "ReLU"
  bottom: "conv2"
  top: "conv2"
}
layer {
  name: "norm2"
  type: "LRN"
  bottom: "conv2"
  top: "norm2"
  lrn_param {
    local_size: 5
    alpha: 0.0001
    beta: 0.75
  }
}
layer {
  name: "pool2"
  type: "Pooling"
  bottom: "norm2"
  top: "pool2"
  pooling_param {
    pool: MAX
    kernel_size: 3
    stride: 2
  }
}
layer {
  name: "conv3"
  type: "Convolution"
  bottom: "pool2"
  top: "conv3"
  param {
    lr_mult: 1
    decay_mult: 1
  }
  param {
    lr_mult: 2
    decay_mult: 0
  }
  convolution_param {
    num_output: 384
    pad: 1
    kernel_size: 3
    weight_filler {
      type: "gaussian"
      std: 0.01
    }
    bias_filler {
      type: "constant"
      value: 0
    }
  }
}
layer {
  name: "relu3"
  type: "ReLU"
  bottom: "conv3"
  top: "conv3"
}
layer {
  name: "conv4"
  type: "Convolution"
  bottom: "conv3"
  top: "conv4"
  param {
    lr_mult: 1
    decay_mult: 1
  }
  param {
    lr_mult: 2
    decay_mult: 0
  }
  convolution_param {
    num_output: 384
    pad: 1
    kernel_size: 3
    group: 2
    weight_filler {
      type: "gaussian"
      std: 0.01
    }
    bias_filler {
      type: "constant"
      value: 0.1
    }
  }
}
layer {
  name: "relu4"
  type: "ReLU"
  bottom: "conv4"
  top: "conv4"
}
layer {
  name: "conv5"
  type: "Convolution"
  bottom: "conv4"
  top: "conv5"
  param {
    lr_mult: 1
    decay_mult: 1
  }
  param {
    lr_mult: 2
    decay_mult: 0
  }
  convolution_param {
    num_output: 256
    pad: 1
    kernel_size: 3
    group: 2
    weight_filler {
      type: "gaussian"
      std: 0.01
    }
    bias_filler {
      type: "constant"
      value: 0.1
    }
  }
}
layer {
  name: "relu5"
  type: "ReLU"
  bottom: "conv5"
  top: "conv5"
}
layer {
  name: "pool5"
  type: "Pooling"
  bottom: "conv5"
  top: "pool5"
  pooling_param {
    pool: MAX
    kernel_size: 3
    stride: 2
  }
}
layer {
  name: "fc6"
  type: "InnerProduct"
  bottom: "pool5"
  top: "fc6"
  param {
    lr_mult: 1
    decay_mult: 1
  }
  param {
    lr_mult: 2
    decay_mult: 0
  }
  inner_product_param {
    num_output: 4096
    weight_filler {
      type: "gaussian"
      std: 0.005
    }
    bias_filler {
      type: "constant"
      value: 0.1
    }
  }
}
layer {
  name: "relu6"
  type: "ReLU"
  bottom: "fc6"
  top: "fc6"
}
layer {
  name: "drop6"
  type: "Dropout"
  bottom: "fc6"
  top: "fc6"
  dropout_param {
    dropout_ratio: 0.5
  }
}
layer {
  name: "fc7"
  type: "InnerProduct"
  bottom: "fc6"
  top: "fc7"
  param {
    lr_mult: 1
    decay_mult: 1
  }
  param {
    lr_mult: 2
    decay_mult: 0
  }
  inner_product_param {
    num_output: 4096
    weight_filler {
      type: "gaussian"
      std: 0.005
    }
    bias_filler {
      type: "constant"
      value: 0.1
    }
  }
}
layer {
  name: "relu7"
  type: "ReLU"
  bottom: "fc7"
  top: "fc7"
}
layer {
  name: "drop7"
  type: "Dropout"
  bottom: "fc7"
  top: "fc7"
  dropout_param {
    dropout_ratio: 0.5
  }
}
layer {
  name: "fc8_QY"
  type: "InnerProduct"
  bottom: "fc7"
  top: "fc8_QY"
  param {
    lr_mult: 10
    decay_mult: 1
  }
  param {
    lr_mult: 2
    decay_mult: 0
  }
  inner_product_param {
    num_output: 5
    weight_filler {
      type: "gaussian"
      std: 0.01
    }
    bias_filler {
      type: "constant"
      value: 0
    }
  }
}
layer {
  name: "loss"
  type: "SoftmaxWithLoss"
  bottom: "fc8_QY"
  bottom: "label"
  top: "loss"
}
I0704 18:42:43.098136  5966 layer_factory.hpp:77] Creating layer data
I0704 18:42:43.098212  5966 db_lmdb.cpp:35] Opened lmdb examples/semaphore/dataQY_train_lmdb
I0704 18:42:43.098244  5966 net.cpp:84] Creating Layer data
I0704 18:42:43.098251  5966 net.cpp:380] data -> data
I0704 18:42:43.098269  5966 net.cpp:380] data -> label
I0704 18:42:43.098279  5966 data_transformer.cpp:25] Loading mean file from: examples/semaphore/imagenet_mean.binaryproto
I0704 18:42:43.101410  5966 data_layer.cpp:45] output data size: 512,3,227,227
I0704 18:42:43.561434  5966 net.cpp:122] Setting up data
I0704 18:42:43.561472  5966 net.cpp:129] Top shape: 512 3 227 227 (79148544)
I0704 18:42:43.561480  5966 net.cpp:129] Top shape: 512 (512)
I0704 18:42:43.561483  5966 net.cpp:137] Memory required for data: 316596224
I0704 18:42:43.561492  5966 layer_factory.hpp:77] Creating layer conv1
I0704 18:42:43.561511  5966 net.cpp:84] Creating Layer conv1
I0704 18:42:43.561517  5966 net.cpp:406] conv1 <- data
I0704 18:42:43.561528  5966 net.cpp:380] conv1 -> conv1
I0704 18:42:43.767596  5966 net.cpp:122] Setting up conv1
I0704 18:42:43.767627  5966 net.cpp:129] Top shape: 512 96 55 55 (148684800)
I0704 18:42:43.767632  5966 net.cpp:137] Memory required for data: 911335424
I0704 18:42:43.767652  5966 layer_factory.hpp:77] Creating layer relu1
I0704 18:42:43.767663  5966 net.cpp:84] Creating Layer relu1
I0704 18:42:43.767665  5966 net.cpp:406] relu1 <- conv1
I0704 18:42:43.767671  5966 net.cpp:367] relu1 -> conv1 (in-place)
I0704 18:42:43.767822  5966 net.cpp:122] Setting up relu1
I0704 18:42:43.767832  5966 net.cpp:129] Top shape: 512 96 55 55 (148684800)
I0704 18:42:43.767834  5966 net.cpp:137] Memory required for data: 1506074624
I0704 18:42:43.767838  5966 layer_factory.hpp:77] Creating layer norm1
I0704 18:42:43.767845  5966 net.cpp:84] Creating Layer norm1
I0704 18:42:43.767848  5966 net.cpp:406] norm1 <- conv1
I0704 18:42:43.767853  5966 net.cpp:380] norm1 -> norm1
I0704 18:42:43.768537  5966 net.cpp:122] Setting up norm1
I0704 18:42:43.768548  5966 net.cpp:129] Top shape: 512 96 55 55 (148684800)
I0704 18:42:43.768553  5966 net.cpp:137] Memory required for data: 2100813824
I0704 18:42:43.768568  5966 layer_factory.hpp:77] Creating layer pool1
I0704 18:42:43.768576  5966 net.cpp:84] Creating Layer pool1
I0704 18:42:43.768579  5966 net.cpp:406] pool1 <- norm1
I0704 18:42:43.768584  5966 net.cpp:380] pool1 -> pool1
I0704 18:42:43.768621  5966 net.cpp:122] Setting up pool1
I0704 18:42:43.768627  5966 net.cpp:129] Top shape: 512 96 27 27 (35831808)
I0704 18:42:43.768630  5966 net.cpp:137] Memory required for data: 2244141056
I0704 18:42:43.768633  5966 layer_factory.hpp:77] Creating layer conv2
I0704 18:42:43.768642  5966 net.cpp:84] Creating Layer conv2
I0704 18:42:43.768646  5966 net.cpp:406] conv2 <- pool1
I0704 18:42:43.768649  5966 net.cpp:380] conv2 -> conv2
I0704 18:42:43.772617  5966 net.cpp:122] Setting up conv2
I0704 18:42:43.772642  5966 net.cpp:129] Top shape: 512 256 27 27 (95551488)
I0704 18:42:43.772645  5966 net.cpp:137] Memory required for data: 2626347008
I0704 18:42:43.772656  5966 layer_factory.hpp:77] Creating layer relu2
I0704 18:42:43.772665  5966 net.cpp:84] Creating Layer relu2
I0704 18:42:43.772667  5966 net.cpp:406] relu2 <- conv2
I0704 18:42:43.772673  5966 net.cpp:367] relu2 -> conv2 (in-place)
I0704 18:42:43.773325  5966 net.cpp:122] Setting up relu2
I0704 18:42:43.773337  5966 net.cpp:129] Top shape: 512 256 27 27 (95551488)
I0704 18:42:43.773340  5966 net.cpp:137] Memory required for data: 3008552960
I0704 18:42:43.773344  5966 layer_factory.hpp:77] Creating layer norm2
I0704 18:42:43.773350  5966 net.cpp:84] Creating Layer norm2
I0704 18:42:43.773353  5966 net.cpp:406] norm2 <- conv2
I0704 18:42:43.773357  5966 net.cpp:380] norm2 -> norm2
I0704 18:42:43.773496  5966 net.cpp:122] Setting up norm2
I0704 18:42:43.773504  5966 net.cpp:129] Top shape: 512 256 27 27 (95551488)
I0704 18:42:43.773507  5966 net.cpp:137] Memory required for data: 3390758912
I0704 18:42:43.773510  5966 layer_factory.hpp:77] Creating layer pool2
I0704 18:42:43.773517  5966 net.cpp:84] Creating Layer pool2
I0704 18:42:43.773520  5966 net.cpp:406] pool2 <- norm2
I0704 18:42:43.773525  5966 net.cpp:380] pool2 -> pool2
I0704 18:42:43.773553  5966 net.cpp:122] Setting up pool2
I0704 18:42:43.773558  5966 net.cpp:129] Top shape: 512 256 13 13 (22151168)
I0704 18:42:43.773561  5966 net.cpp:137] Memory required for data: 3479363584
I0704 18:42:43.773563  5966 layer_factory.hpp:77] Creating layer conv3
I0704 18:42:43.773571  5966 net.cpp:84] Creating Layer conv3
I0704 18:42:43.773574  5966 net.cpp:406] conv3 <- pool2
I0704 18:42:43.773579  5966 net.cpp:380] conv3 -> conv3
I0704 18:42:43.783828  5966 net.cpp:122] Setting up conv3
I0704 18:42:43.783857  5966 net.cpp:129] Top shape: 512 384 13 13 (33226752)
I0704 18:42:43.783861  5966 net.cpp:137] Memory required for data: 3612270592
I0704 18:42:43.783874  5966 layer_factory.hpp:77] Creating layer relu3
I0704 18:42:43.783884  5966 net.cpp:84] Creating Layer relu3
I0704 18:42:43.783887  5966 net.cpp:406] relu3 <- conv3
I0704 18:42:43.783892  5966 net.cpp:367] relu3 -> conv3 (in-place)
I0704 18:42:43.784024  5966 net.cpp:122] Setting up relu3
I0704 18:42:43.784034  5966 net.cpp:129] Top shape: 512 384 13 13 (33226752)
I0704 18:42:43.784036  5966 net.cpp:137] Memory required for data: 3745177600
I0704 18:42:43.784039  5966 layer_factory.hpp:77] Creating layer conv4
I0704 18:42:43.784049  5966 net.cpp:84] Creating Layer conv4
I0704 18:42:43.784051  5966 net.cpp:406] conv4 <- conv3
I0704 18:42:43.784056  5966 net.cpp:380] conv4 -> conv4
I0704 18:42:43.792812  5966 net.cpp:122] Setting up conv4
I0704 18:42:43.792841  5966 net.cpp:129] Top shape: 512 384 13 13 (33226752)
I0704 18:42:43.792845  5966 net.cpp:137] Memory required for data: 3878084608
I0704 18:42:43.792853  5966 layer_factory.hpp:77] Creating layer relu4
I0704 18:42:43.792861  5966 net.cpp:84] Creating Layer relu4
I0704 18:42:43.792865  5966 net.cpp:406] relu4 <- conv4
I0704 18:42:43.792881  5966 net.cpp:367] relu4 -> conv4 (in-place)
I0704 18:42:43.793026  5966 net.cpp:122] Setting up relu4
I0704 18:42:43.793035  5966 net.cpp:129] Top shape: 512 384 13 13 (33226752)
I0704 18:42:43.793045  5966 net.cpp:137] Memory required for data: 4010991616
I0704 18:42:43.793054  5966 layer_factory.hpp:77] Creating layer conv5
I0704 18:42:43.793066  5966 net.cpp:84] Creating Layer conv5
I0704 18:42:43.793068  5966 net.cpp:406] conv5 <- conv4
I0704 18:42:43.793074  5966 net.cpp:380] conv5 -> conv5
I0704 18:42:43.800016  5966 net.cpp:122] Setting up conv5
I0704 18:42:43.800045  5966 net.cpp:129] Top shape: 512 256 13 13 (22151168)
I0704 18:42:43.800047  5966 net.cpp:137] Memory required for data: 4099596288
I0704 18:42:43.800062  5966 layer_factory.hpp:77] Creating layer relu5
I0704 18:42:43.800071  5966 net.cpp:84] Creating Layer relu5
I0704 18:42:43.800076  5966 net.cpp:406] relu5 <- conv5
I0704 18:42:43.800081  5966 net.cpp:367] relu5 -> conv5 (in-place)
I0704 18:42:43.800223  5966 net.cpp:122] Setting up relu5
I0704 18:42:43.800232  5966 net.cpp:129] Top shape: 512 256 13 13 (22151168)
I0704 18:42:43.800235  5966 net.cpp:137] Memory required for data: 4188200960
I0704 18:42:43.800238  5966 layer_factory.hpp:77] Creating layer pool5
I0704 18:42:43.800245  5966 net.cpp:84] Creating Layer pool5
I0704 18:42:43.800247  5966 net.cpp:406] pool5 <- conv5
I0704 18:42:43.800252  5966 net.cpp:380] pool5 -> pool5
I0704 18:42:43.800292  5966 net.cpp:122] Setting up pool5
I0704 18:42:43.800298  5966 net.cpp:129] Top shape: 512 256 6 6 (4718592)
I0704 18:42:43.800302  5966 net.cpp:137] Memory required for data: 4207075328
I0704 18:42:43.800304  5966 layer_factory.hpp:77] Creating layer fc6
I0704 18:42:43.800314  5966 net.cpp:84] Creating Layer fc6
I0704 18:42:43.800318  5966 net.cpp:406] fc6 <- pool5
I0704 18:42:43.800323  5966 net.cpp:380] fc6 -> fc6
I0704 18:42:44.243841  5966 net.cpp:122] Setting up fc6
I0704 18:42:44.243885  5966 net.cpp:129] Top shape: 512 4096 (2097152)
I0704 18:42:44.243891  5966 net.cpp:137] Memory required for data: 4215463936
I0704 18:42:44.243902  5966 layer_factory.hpp:77] Creating layer relu6
I0704 18:42:44.243916  5966 net.cpp:84] Creating Layer relu6
I0704 18:42:44.243922  5966 net.cpp:406] relu6 <- fc6
I0704 18:42:44.243930  5966 net.cpp:367] relu6 -> fc6 (in-place)
I0704 18:42:44.244982  5966 net.cpp:122] Setting up relu6
I0704 18:42:44.244998  5966 net.cpp:129] Top shape: 512 4096 (2097152)
I0704 18:42:44.245004  5966 net.cpp:137] Memory required for data: 4223852544
I0704 18:42:44.245009  5966 layer_factory.hpp:77] Creating layer drop6
I0704 18:42:44.245018  5966 net.cpp:84] Creating Layer drop6
I0704 18:42:44.245023  5966 net.cpp:406] drop6 <- fc6
I0704 18:42:44.245029  5966 net.cpp:367] drop6 -> fc6 (in-place)
I0704 18:42:44.245066  5966 net.cpp:122] Setting up drop6
I0704 18:42:44.245074  5966 net.cpp:129] Top shape: 512 4096 (2097152)
I0704 18:42:44.245079  5966 net.cpp:137] Memory required for data: 4232241152
I0704 18:42:44.245082  5966 layer_factory.hpp:77] Creating layer fc7
I0704 18:42:44.245093  5966 net.cpp:84] Creating Layer fc7
I0704 18:42:44.245097  5966 net.cpp:406] fc7 <- fc6
I0704 18:42:44.245105  5966 net.cpp:380] fc7 -> fc7
I0704 18:42:44.474350  5966 net.cpp:122] Setting up fc7
I0704 18:42:44.474390  5966 net.cpp:129] Top shape: 512 4096 (2097152)
I0704 18:42:44.474395  5966 net.cpp:137] Memory required for data: 4240629760
I0704 18:42:44.474407  5966 layer_factory.hpp:77] Creating layer relu7
I0704 18:42:44.474418  5966 net.cpp:84] Creating Layer relu7
I0704 18:42:44.474424  5966 net.cpp:406] relu7 <- fc7
I0704 18:42:44.474433  5966 net.cpp:367] relu7 -> fc7 (in-place)
I0704 18:42:44.474680  5966 net.cpp:122] Setting up relu7
I0704 18:42:44.474694  5966 net.cpp:129] Top shape: 512 4096 (2097152)
I0704 18:42:44.474701  5966 net.cpp:137] Memory required for data: 4249018368
I0704 18:42:44.474706  5966 layer_factory.hpp:77] Creating layer drop7
I0704 18:42:44.474719  5966 net.cpp:84] Creating Layer drop7
I0704 18:42:44.474726  5966 net.cpp:406] drop7 <- fc7
I0704 18:42:44.474735  5966 net.cpp:367] drop7 -> fc7 (in-place)
I0704 18:42:44.474766  5966 net.cpp:122] Setting up drop7
I0704 18:42:44.474774  5966 net.cpp:129] Top shape: 512 4096 (2097152)
I0704 18:42:44.474786  5966 net.cpp:137] Memory required for data: 4257406976
I0704 18:42:44.474800  5966 layer_factory.hpp:77] Creating layer fc8_QY
I0704 18:42:44.474809  5966 net.cpp:84] Creating Layer fc8_QY
I0704 18:42:44.474813  5966 net.cpp:406] fc8_QY <- fc7
I0704 18:42:44.474822  5966 net.cpp:380] fc8_QY -> fc8_QY
I0704 18:42:44.475210  5966 net.cpp:122] Setting up fc8_QY
I0704 18:42:44.475219  5966 net.cpp:129] Top shape: 512 5 (2560)
I0704 18:42:44.475227  5966 net.cpp:137] Memory required for data: 4257417216
I0704 18:42:44.475239  5966 layer_factory.hpp:77] Creating layer loss
I0704 18:42:44.475248  5966 net.cpp:84] Creating Layer loss
I0704 18:42:44.475255  5966 net.cpp:406] loss <- fc8_QY
I0704 18:42:44.475261  5966 net.cpp:406] loss <- label
I0704 18:42:44.475272  5966 net.cpp:380] loss -> loss
I0704 18:42:44.475291  5966 layer_factory.hpp:77] Creating layer loss
…
I0704 18:42:44.476119  5966 net.cpp:294] The NetState phase (1) differed from the phase (0) specified by a rule in layer data
I0704 18:42:44.476322  5966 net.cpp:51] Initializing net from parameters: 
name: "AlexNet"
state {
  phase: TEST
}
layer {
  name: "data"
  type: "Data"
  top: "data"
  top: "label"
  include {
    phase: TEST
  }
  transform_param {
    mirror: false
    crop_size: 227
    mean_file: "examples/semaphore/imagenet_mean.binaryproto"
  }
  data_param {
    source: "examples/semaphore/dataQY_val_lmdb"
    batch_size: 512
    backend: LMDB
  }
}
layer {
  name: "conv1"
  type: "Convolution"
  bottom: "data"
  top: "conv1"
  param {
    lr_mult: 1
    decay_mult: 1
  }
  param {
    lr_mult: 2
    decay_mult: 0
  }
  convolution_param {
    num_output: 96
    kernel_size: 11
    stride: 4
    weight_filler {
      type: "gaussian"
      std: 0.01
    }
    bias_filler {
      type: "constant"
      value: 0
    }
  }
}
layer {
  name: "relu1"
  type: "ReLU"
  bottom: "conv1"
  top: "conv1"
}
layer {
  name: "norm1"
  type: "LRN"
  bottom: "conv1"
  top: "norm1"
  lrn_param {
    local_size: 5
    alpha: 0.0001
    beta: 0.75
  }
}
layer {
  name: "pool1"
  type: "Pooling"
  bottom: "norm1"
  top: "pool1"
  pooling_param {
    pool: MAX
    kernel_size: 3
    stride: 2
  }
}
layer {
  name: "conv2"
  type: "Convolution"
  bottom: "pool1"
  top: "conv2"
  param {
    lr_mult: 1
    decay_mult: 1
  }
  param {
    lr_mult: 2
    decay_mult: 0
  }
  convolution_param {
    num_output: 256
    pad: 2
    kernel_size: 5
    group: 2
    weight_filler {
      type: "gaussian"
      std: 0.01
    }
    bias_filler {
      type: "constant"
      value: 0.1
    }
  }
}
layer {
  name: "relu2"
  type: "ReLU"
  bottom: "conv2"
  top: "conv2"
}
layer {
  name: "norm2"
  type: "LRN"
  bottom: "conv2"
  top: "norm2"
  lrn_param {
    local_size: 5
    alpha: 0.0001
    beta: 0.75
  }
}
layer {
  name: "pool2"
  type: "Pooling"
  bottom: "norm2"
  top: "pool2"
  pooling_param {
    pool: MAX
    kernel_size: 3
    stride: 2
  }
}
layer {
  name: "conv3"
  type: "Convolution"
  bottom: "pool2"
  top: "conv3"
  param {
    lr_mult: 1
    decay_mult: 1
  }
  param {
    lr_mult: 2
    decay_mult: 0
  }
  convolution_param {
    num_output: 384
    pad: 1
    kernel_size: 3
    weight_filler {
      type: "gaussian"
      std: 0.01
    }
    bias_filler {
      type: "constant"
      value: 0
    }
  }
}
layer {
  name: "relu3"
  type: "ReLU"
  bottom: "conv3"
  top: "conv3"
}
layer {
  name: "conv4"
  type: "Convolution"
  bottom: "conv3"
  top: "conv4"
  param {
    lr_mult: 1
    decay_mult: 1
  }
  param {
    lr_mult: 2
    decay_mult: 0
  }
  convolution_param {
    num_output: 384
    pad: 1
    kernel_size: 3
    group: 2
    weight_filler {
      type: "gaussian"
      std: 0.01
    }
    bias_filler {
      type: "constant"
      value: 0.1
    }
  }
}
layer {
  name: "relu4"
  type: "ReLU"
  bottom: "conv4"
  top: "conv4"
}
layer {
  name: "conv5"
  type: "Convolution"
  bottom: "conv4"
  top: "conv5"
  param {
    lr_mult: 1
    decay_mult: 1
  }
  param {
    lr_mult: 2
    decay_mult: 0
  }
  convolution_param {
    num_output: 256
    pad: 1
    kernel_size: 3
    group: 2
    weight_filler {
      type: "gaussian"
      std: 0.01
    }
    bias_filler {
      type: "constant"
      value: 0.1
    }
  }
}
layer {
  name: "relu5"
  type: "ReLU"
  bottom: "conv5"
  top: "conv5"
}
layer {
  name: "pool5"
  type: "Pooling"
  bottom: "conv5"
  top: "pool5"
  pooling_param {
    pool: MAX
    kernel_size: 3
    stride: 2
  }
}
layer {
  name: "fc6"
  type: "InnerProduct"
  bottom: "pool5"
  top: "fc6"
  param {
    lr_mult: 1
    decay_mult: 1
  }
  param {
    lr_mult: 2
    decay_mult: 0
  }
  inner_product_param {
    num_output: 4096
    weight_filler {
      type: "gaussian"
      std: 0.005
    }
    bias_filler {
      type: "constant"
      value: 0.1
    }
  }
}
layer {
  name: "relu6"
  type: "ReLU"
  bottom: "fc6"
  top: "fc6"
}
layer {
  name: "drop6"
  type: "Dropout"
  bottom: "fc6"
  top: "fc6"
  dropout_param {
    dropout_ratio: 0.5
  }
}
layer {
  name: "fc7"
  type: "InnerProduct"
  bottom: "fc6"
  top: "fc7"
  param {
    lr_mult: 1
    decay_mult: 1
  }
  param {
    lr_mult: 2
    decay_mult: 0
  }
  inner_product_param {
    num_output: 4096
    weight_filler {
      type: "gaussian"
      std: 0.005
    }
    bias_filler {
      type: "constant"
      value: 0.1
    }
  }
}
layer {
  name: "relu7"
  type: "ReLU"
  bottom: "fc7"
  top: "fc7"
}
layer {
  name: "drop7"
  type: "Dropout"
  bottom: "fc7"
  top: "fc7"
  dropout_param {
    dropout_ratio: 0.5
  }
}
layer {
  name: "fc8_QY"
  type: "InnerProduct"
  bottom: "fc7"
  top: "fc8_QY"
  param {
    lr_mult: 10
    decay_mult: 1
  }
  param {
    lr_mult: 2
    decay_mult: 0
  }
  inner_product_param {
    num_output: 5
    weight_filler {
      type: "gaussian"
      std: 0.01
    }
    bias_filler {
      type: "constant"
      value: 0
    }
  }
}
layer {
  name: "accuracy"
  type: "Accuracy"
  bottom: "fc8_QY"
  bottom: "label"
  top: "accuracy"
  include {
    phase: TEST
  }
}
layer {
  name: "loss"
  type: "SoftmaxWithLoss"
  bottom: "fc8_QY"
  bottom: "label"
  top: "loss"
}
I0704 18:42:44.476450  5966 layer_factory.hpp:77] Creating layer data
I0704 18:42:44.476513  5966 db_lmdb.cpp:35] Opened lmdb examples/semaphore/dataQY_val_lmdb
I0704 18:42:44.476546  5966 net.cpp:84] Creating Layer data
I0704 18:42:44.476555  5966 net.cpp:380] data -> data
I0704 18:42:44.476567  5966 net.cpp:380] data -> label
I0704 18:42:44.476575  5966 data_transformer.cpp:25] Loading mean file from: examples/semaphore/imagenet_mean.binaryproto
I0704 18:42:44.479378  5966 data_layer.cpp:45] output data size: 512,3,227,227
I0704 18:42:44.972193  5966 net.cpp:122] Setting up data
I0704 18:42:44.972226  5966 net.cpp:129] Top shape: 512 3 227 227 (79148544)
I0704 18:42:44.972230  5966 net.cpp:129] Top shape: 512 (512)
I0704 18:42:44.972234  5966 net.cpp:137] Memory required for data: 316596224
I0704 18:42:44.972239  5966 layer_factory.hpp:77] Creating layer label_data_1_split
I0704 18:42:44.972249  5966 net.cpp:84] Creating Layer label_data_1_split
I0704 18:42:44.972254  5966 net.cpp:406] label_data_1_split <- label
I0704 18:42:44.972259  5966 net.cpp:380] label_data_1_split -> label_data_1_split_0
I0704 18:42:44.972268  5966 net.cpp:380] label_data_1_split -> label_data_1_split_1
I0704 18:42:44.972389  5966 net.cpp:122] Setting up label_data_1_split
I0704 18:42:44.972398  5966 net.cpp:129] Top shape: 512 (512)
I0704 18:42:44.972400  5966 net.cpp:129] Top shape: 512 (512)
I0704 18:42:44.972403  5966 net.cpp:137] Memory required for data: 316600320
I0704 18:42:44.972405  5966 layer_factory.hpp:77] Creating layer conv1
I0704 18:42:44.972416  5966 net.cpp:84] Creating Layer conv1
I0704 18:42:44.972419  5966 net.cpp:406] conv1 <- data
I0704 18:42:44.972424  5966 net.cpp:380] conv1 -> conv1
I0704 18:42:44.974244  5966 net.cpp:122] Setting up conv1
I0704 18:42:44.974264  5966 net.cpp:129] Top shape: 512 96 55 55 (148684800)
I0704 18:42:44.974267  5966 net.cpp:137] Memory required for data: 911339520
I0704 18:42:44.974277  5966 layer_factory.hpp:77] Creating layer relu1
I0704 18:42:44.974284  5966 net.cpp:84] Creating Layer relu1
I0704 18:42:44.974287  5966 net.cpp:406] relu1 <- conv1
I0704 18:42:44.974292  5966 net.cpp:367] relu1 -> conv1 (in-place)
I0704 18:42:44.974419  5966 net.cpp:122] Setting up relu1
I0704 18:42:44.974428  5966 net.cpp:129] Top shape: 512 96 55 55 (148684800)
I0704 18:42:44.974431  5966 net.cpp:137] Memory required for data: 1506078720
I0704 18:42:44.974433  5966 layer_factory.hpp:77] Creating layer norm1
I0704 18:42:44.974440  5966 net.cpp:84] Creating Layer norm1
I0704 18:42:44.974443  5966 net.cpp:406] norm1 <- conv1
I0704 18:42:44.974448  5966 net.cpp:380] norm1 -> norm1
I0704 18:42:44.999502  5966 net.cpp:122] Setting up norm1
I0704 18:42:44.999549  5966 net.cpp:129] Top shape: 512 96 55 55 (148684800)
I0704 18:42:44.999555  5966 net.cpp:137] Memory required for data: 2100817920
I0704 18:42:44.999563  5966 layer_factory.hpp:77] Creating layer pool1
I0704 18:42:44.999578  5966 net.cpp:84] Creating Layer pool1
I0704 18:42:44.999585  5966 net.cpp:406] pool1 <- norm1
I0704 18:42:44.999596  5966 net.cpp:380] pool1 -> pool1
I0704 18:42:44.999657  5966 net.cpp:122] Setting up pool1
I0704 18:42:44.999667  5966 net.cpp:129] Top shape: 512 96 27 27 (35831808)
I0704 18:42:44.999672  5966 net.cpp:137] Memory required for data: 2244145152
I0704 18:42:44.999677  5966 layer_factory.hpp:77] Creating layer conv2
I0704 18:42:44.999693  5966 net.cpp:84] Creating Layer conv2
I0704 18:42:44.999698  5966 net.cpp:406] conv2 <- pool1
I0704 18:42:44.999707  5966 net.cpp:380] conv2 -> conv2
I0704 18:42:45.009763  5966 net.cpp:122] Setting up conv2
I0704 18:42:45.009806  5966 net.cpp:129] Top shape: 512 256 27 27 (95551488)
I0704 18:42:45.009812  5966 net.cpp:137] Memory required for data: 2626351104
I0704 18:42:45.009840  5966 layer_factory.hpp:77] Creating layer relu2
I0704 18:42:45.009863  5966 net.cpp:84] Creating Layer relu2
I0704 18:42:45.009871  5966 net.cpp:406] relu2 <- conv2
I0704 18:42:45.009881  5966 net.cpp:367] relu2 -> conv2 (in-place)
I0704 18:42:45.012197  5966 net.cpp:122] Setting up relu2
I0704 18:42:45.012219  5966 net.cpp:129] Top shape: 512 256 27 27 (95551488)
I0704 18:42:45.012224  5966 net.cpp:137] Memory required for data: 3008557056
I0704 18:42:45.012230  5966 layer_factory.hpp:77] Creating layer norm2
I0704 18:42:45.012245  5966 net.cpp:84] Creating Layer norm2
I0704 18:42:45.012251  5966 net.cpp:406] norm2 <- conv2
I0704 18:42:45.012260  5966 net.cpp:380] norm2 -> norm2
I0704 18:42:45.012537  5966 net.cpp:122] Setting up norm2
I0704 18:42:45.012552  5966 net.cpp:129] Top shape: 512 256 27 27 (95551488)
I0704 18:42:45.012557  5966 net.cpp:137] Memory required for data: 3390763008
I0704 18:42:45.012562  5966 layer_factory.hpp:77] Creating layer pool2
I0704 18:42:45.012572  5966 net.cpp:84] Creating Layer pool2
I0704 18:42:45.012578  5966 net.cpp:406] pool2 <- norm2
I0704 18:42:45.012584  5966 net.cpp:380] pool2 -> pool2
I0704 18:42:45.012636  5966 net.cpp:122] Setting up pool2
I0704 18:42:45.012645  5966 net.cpp:129] Top shape: 512 256 13 13 (22151168)
I0704 18:42:45.012650  5966 net.cpp:137] Memory required for data: 3479367680
I0704 18:42:45.012655  5966 layer_factory.hpp:77] Creating layer conv3
I0704 18:42:45.012670  5966 net.cpp:84] Creating Layer conv3
I0704 18:42:45.012675  5966 net.cpp:406] conv3 <- pool2
I0704 18:42:45.012682  5966 net.cpp:380] conv3 -> conv3
I0704 18:42:45.038846  5966 net.cpp:122] Setting up conv3
I0704 18:42:45.038882  5966 net.cpp:129] Top shape: 512 384 13 13 (33226752)
I0704 18:42:45.038887  5966 net.cpp:137] Memory required for data: 3612274688
I0704 18:42:45.038905  5966 layer_factory.hpp:77] Creating layer relu3
I0704 18:42:45.038918  5966 net.cpp:84] Creating Layer relu3
I0704 18:42:45.038924  5966 net.cpp:406] relu3 <- conv3
I0704 18:42:45.038933  5966 net.cpp:367] relu3 -> conv3 (in-place)
I0704 18:42:45.039165  5966 net.cpp:122] Setting up relu3
I0704 18:42:45.039177  5966 net.cpp:129] Top shape: 512 384 13 13 (33226752)
I0704 18:42:45.039182  5966 net.cpp:137] Memory required for data: 3745181696
I0704 18:42:45.039187  5966 layer_factory.hpp:77] Creating layer conv4
I0704 18:42:45.039201  5966 net.cpp:84] Creating Layer conv4
I0704 18:42:45.039206  5966 net.cpp:406] conv4 <- conv3
I0704 18:42:45.039214  5966 net.cpp:380] conv4 -> conv4
I0704 18:42:45.053514  5966 net.cpp:122] Setting up conv4
I0704 18:42:45.053546  5966 net.cpp:129] Top shape: 512 384 13 13 (33226752)
I0704 18:42:45.053551  5966 net.cpp:137] Memory required for data: 3878088704
I0704 18:42:45.053563  5966 layer_factory.hpp:77] Creating layer relu4
I0704 18:42:45.053575  5966 net.cpp:84] Creating Layer relu4
I0704 18:42:45.053580  5966 net.cpp:406] relu4 <- conv4
I0704 18:42:45.053587  5966 net.cpp:367] relu4 -> conv4 (in-place)
I0704 18:42:45.053817  5966 net.cpp:122] Setting up relu4
I0704 18:42:45.053828  5966 net.cpp:129] Top shape: 512 384 13 13 (33226752)
I0704 18:42:45.053833  5966 net.cpp:137] Memory required for data: 4010995712
I0704 18:42:45.053838  5966 layer_factory.hpp:77] Creating layer conv5
I0704 18:42:45.053850  5966 net.cpp:84] Creating Layer conv5
I0704 18:42:45.053854  5966 net.cpp:406] conv5 <- conv4
I0704 18:42:45.053863  5966 net.cpp:380] conv5 -> conv5
I0704 18:42:45.065250  5966 net.cpp:122] Setting up conv5
I0704 18:42:45.065282  5966 net.cpp:129] Top shape: 512 256 13 13 (22151168)
I0704 18:42:45.065287  5966 net.cpp:137] Memory required for data: 4099600384
I0704 18:42:45.065304  5966 layer_factory.hpp:77] Creating layer relu5
I0704 18:42:45.065315  5966 net.cpp:84] Creating Layer relu5
I0704 18:42:45.065320  5966 net.cpp:406] relu5 <- conv5
I0704 18:42:45.065328  5966 net.cpp:367] relu5 -> conv5 (in-place)
I0704 18:42:45.065534  5966 net.cpp:122] Setting up relu5
I0704 18:42:45.065546  5966 net.cpp:129] Top shape: 512 256 13 13 (22151168)
I0704 18:42:45.065559  5966 net.cpp:137] Memory required for data: 4188205056
I0704 18:42:45.065572  5966 layer_factory.hpp:77] Creating layer pool5
I0704 18:42:45.065583  5966 net.cpp:84] Creating Layer pool5
I0704 18:42:45.065588  5966 net.cpp:406] pool5 <- conv5
I0704 18:42:45.065595  5966 net.cpp:380] pool5 -> pool5
I0704 18:42:45.065654  5966 net.cpp:122] Setting up pool5
I0704 18:42:45.065662  5966 net.cpp:129] Top shape: 512 256 6 6 (4718592)
I0704 18:42:45.065666  5966 net.cpp:137] Memory required for data: 4207079424
I0704 18:42:45.065670  5966 layer_factory.hpp:77] Creating layer fc6
I0704 18:42:45.065678  5966 net.cpp:84] Creating Layer fc6
I0704 18:42:45.065683  5966 net.cpp:406] fc6 <- pool5
I0704 18:42:45.065690  5966 net.cpp:380] fc6 -> fc6
I0704 18:42:45.416661  5966 net.cpp:122] Setting up fc6
I0704 18:42:45.416697  5966 net.cpp:129] Top shape: 512 4096 (2097152)
I0704 18:42:45.416699  5966 net.cpp:137] Memory required for data: 4215468032
I0704 18:42:45.416708  5966 layer_factory.hpp:77] Creating layer relu6
I0704 18:42:45.416718  5966 net.cpp:84] Creating Layer relu6
I0704 18:42:45.416720  5966 net.cpp:406] relu6 <- fc6
I0704 18:42:45.416726  5966 net.cpp:367] relu6 -> fc6 (in-place)
I0704 18:42:45.416927  5966 net.cpp:122] Setting up relu6
I0704 18:42:45.416937  5966 net.cpp:129] Top shape: 512 4096 (2097152)
I0704 18:42:45.416939  5966 net.cpp:137] Memory required for data: 4223856640
I0704 18:42:45.416942  5966 layer_factory.hpp:77] Creating layer drop6
I0704 18:42:45.416949  5966 net.cpp:84] Creating Layer drop6
I0704 18:42:45.416951  5966 net.cpp:406] drop6 <- fc6
I0704 18:42:45.416955  5966 net.cpp:367] drop6 -> fc6 (in-place)
I0704 18:42:45.416980  5966 net.cpp:122] Setting up drop6
I0704 18:42:45.416985  5966 net.cpp:129] Top shape: 512 4096 (2097152)
I0704 18:42:45.416987  5966 net.cpp:137] Memory required for data: 4232245248
I0704 18:42:45.416990  5966 layer_factory.hpp:77] Creating layer fc7
I0704 18:42:45.416996  5966 net.cpp:84] Creating Layer fc7
I0704 18:42:45.416999  5966 net.cpp:406] fc7 <- fc6
I0704 18:42:45.417003  5966 net.cpp:380] fc7 -> fc7
I0704 18:42:45.565057  5966 net.cpp:122] Setting up fc7
I0704 18:42:45.565089  5966 net.cpp:129] Top shape: 512 4096 (2097152)
I0704 18:42:45.565093  5966 net.cpp:137] Memory required for data: 4240633856
I0704 18:42:45.565101  5966 layer_factory.hpp:77] Creating layer relu7
I0704 18:42:45.565110  5966 net.cpp:84] Creating Layer relu7
I0704 18:42:45.565114  5966 net.cpp:406] relu7 <- fc7
I0704 18:42:45.565120  5966 net.cpp:367] relu7 -> fc7 (in-place)
I0704 18:42:45.565963  5966 net.cpp:122] Setting up relu7
I0704 18:42:45.565974  5966 net.cpp:129] Top shape: 512 4096 (2097152)
I0704 18:42:45.565978  5966 net.cpp:137] Memory required for data: 4249022464
I0704 18:42:45.565980  5966 layer_factory.hpp:77] Creating layer drop7
I0704 18:42:45.565986  5966 net.cpp:84] Creating Layer drop7
I0704 18:42:45.565989  5966 net.cpp:406] drop7 <- fc7
I0704 18:42:45.565994  5966 net.cpp:367] drop7 -> fc7 (in-place)
I0704 18:42:45.566018  5966 net.cpp:122] Setting up drop7
I0704 18:42:45.566023  5966 net.cpp:129] Top shape: 512 4096 (2097152)
I0704 18:42:45.566026  5966 net.cpp:137] Memory required for data: 4257411072
I0704 18:42:45.566028  5966 layer_factory.hpp:77] Creating layer fc8_QY
I0704 18:42:45.566035  5966 net.cpp:84] Creating Layer fc8_QY
I0704 18:42:45.566038  5966 net.cpp:406] fc8_QY <- fc7
I0704 18:42:45.566042  5966 net.cpp:380] fc8_QY -> fc8_QY
I0704 18:42:45.566303  5966 net.cpp:122] Setting up fc8_QY
I0704 18:42:45.566309  5966 net.cpp:129] Top shape: 512 5 (2560)
I0704 18:42:45.566311  5966 net.cpp:137] Memory required for data: 4257421312
I0704 18:42:45.566316  5966 layer_factory.hpp:77] Creating layer fc8_QY_fc8_QY_0_split
I0704 18:42:45.566323  5966 net.cpp:84] Creating Layer fc8_QY_fc8_QY_0_split
I0704 18:42:45.566325  5966 net.cpp:406] fc8_QY_fc8_QY_0_split <- fc8_QY
I0704 18:42:45.566329  5966 net.cpp:380] fc8_QY_fc8_QY_0_split -> fc8_QY_fc8_QY_0_split_0
I0704 18:42:45.566335  5966 net.cpp:380] fc8_QY_fc8_QY_0_split -> fc8_QY_fc8_QY_0_split_1
I0704 18:42:45.566373  5966 net.cpp:122] Setting up fc8_QY_fc8_QY_0_split
I0704 18:42:45.566385  5966 net.cpp:129] Top shape: 512 5 (2560)
I0704 18:42:45.566387  5966 net.cpp:129] Top shape: 512 5 (2560)
I0704 18:42:45.566390  5966 net.cpp:137] Memory required for data: 4257441792
I0704 18:42:45.566392  5966 layer_factory.hpp:77] Creating layer accuracy
I0704 18:42:45.566398  5966 net.cpp:84] Creating Layer accuracy
I0704 18:42:45.566401  5966 net.cpp:406] accuracy <- fc8_QY_fc8_QY_0_split_0
I0704 18:42:45.566406  5966 net.cpp:406] accuracy <- label_data_1_split_0
I0704 18:42:45.566409  5966 net.cpp:380] accuracy -> accuracy
…
