…
I0704 17:32:21.303841  4500 net.cpp:294] The NetState phase (0) differed from the phase (1) specified by a rule in layer accuracy
I0704 17:32:21.303961  4500 net.cpp:51] Initializing net from parameters: 
name: "AlexNet"
state {
  phase: TRAIN
  level: 0
  stage: ""
}
layer {
  name: "data"
  type: "Data"
  top: "data"
  top: "label"
  include {
    phase: TRAIN
  }
  transform_param {
    mirror: true
    crop_size: 227
    mean_file: "examples/semaphore/imagenet_mean.binaryproto"
  }
  data_param {
    source: "examples/semaphore/dataQY_train_lmdb"
    batch_size: 256
    backend: LMDB
  }
}
layer {
  name: "conv1"
  type: "Convolution"
  bottom: "data"
  top: "conv1"
  param {
    lr_mult: 1
    decay_mult: 1
  }
  param {
    lr_mult: 2
    decay_mult: 0
  }
  convolution_param {
    num_output: 96
    kernel_size: 11
    stride: 4
    weight_filler {
      type: "gaussian"
      std: 0.01
    }
    bias_filler {
      type: "constant"
      value: 0
    }
  }
}
layer {
  name: "relu1"
  type: "ReLU"
  bottom: "conv1"
  top: "conv1"
}
layer {
  name: "norm1"
  type: "LRN"
  bottom: "conv1"
  top: "norm1"
  lrn_param {
    local_size: 5
    alpha: 0.0001
    beta: 0.75
  }
}
layer {
  name: "pool1"
  type: "Pooling"
  bottom: "norm1"
  top: "pool1"
  pooling_param {
    pool: MAX
    kernel_size: 3
    stride: 2
  }
}
layer {
  name: "conv2"
  type: "Convolution"
  bottom: "pool1"
  top: "conv2"
  param {
    lr_mult: 1
    decay_mult: 1
  }
  param {
    lr_mult: 2
    decay_mult: 0
  }
  convolution_param {
    num_output: 256
    pad: 2
    kernel_size: 5
    group: 2
    weight_filler {
      type: "gaussian"
      std: 0.01
    }
    bias_filler {
      type: "constant"
      value: 0.1
    }
  }
}
layer {
  name: "relu2"
  type: "ReLU"
  bottom: "conv2"
  top: "conv2"
}
layer {
  name: "norm2"
  type: "LRN"
  bottom: "conv2"
  top: "norm2"
  lrn_param {
    local_size: 5
    alpha: 0.0001
    beta: 0.75
  }
}
layer {
  name: "pool2"
  type: "Pooling"
  bottom: "norm2"
  top: "pool2"
  pooling_param {
    pool: MAX
    kernel_size: 3
    stride: 2
  }
}
layer {
  name: "conv3"
  type: "Convolution"
  bottom: "pool2"
  top: "conv3"
  param {
    lr_mult: 1
    decay_mult: 1
  }
  param {
    lr_mult: 2
    decay_mult: 0
  }
  convolution_param {
    num_output: 384
    pad: 1
    kernel_size: 3
    weight_filler {
      type: "gaussian"
      std: 0.01
    }
    bias_filler {
      type: "constant"
      value: 0
    }
  }
}
layer {
  name: "relu3"
  type: "ReLU"
  bottom: "conv3"
  top: "conv3"
}
layer {
  name: "conv4"
  type: "Convolution"
  bottom: "conv3"
  top: "conv4"
  param {
    lr_mult: 1
    decay_mult: 1
  }
  param {
    lr_mult: 2
    decay_mult: 0
  }
  convolution_param {
    num_output: 384
    pad: 1
    kernel_size: 3
    group: 2
    weight_filler {
      type: "gaussian"
      std: 0.01
    }
    bias_filler {
      type: "constant"
      value: 0.1
    }
  }
}
layer {
  name: "relu4"
  type: "ReLU"
  bottom: "conv4"
  top: "conv4"
}
layer {
  name: "conv5"
  type: "Convolution"
  bottom: "conv4"
  top: "conv5"
  param {
    lr_mult: 1
    decay_mult: 1
  }
  param {
    lr_mult: 2
    decay_mult: 0
  }
  convolution_param {
    num_output: 256
    pad: 1
    kernel_size: 3
    group: 2
    weight_filler {
      type: "gaussian"
      std: 0.01
    }
    bias_filler {
      type: "constant"
      value: 0.1
    }
  }
}
layer {
  name: "relu5"
  type: "ReLU"
  bottom: "conv5"
  top: "conv5"
}
layer {
  name: "pool5"
  type: "Pooling"
  bottom: "conv5"
  top: "pool5"
  pooling_param {
    pool: MAX
    kernel_size: 3
    stride: 2
  }
}
layer {
  name: "fc6"
  type: "InnerProduct"
  bottom: "pool5"
  top: "fc6"
  param {
    lr_mult: 1
    decay_mult: 1
  }
  param {
    lr_mult: 2
    decay_mult: 0
  }
  inner_product_param {
    num_output: 4096
    weight_filler {
      type: "gaussian"
      std: 0.005
    }
    bias_filler {
      type: "constant"
      value: 0.1
    }
  }
}
layer {
  name: "relu6"
  type: "ReLU"
  bottom: "fc6"
  top: "fc6"
}
layer {
  name: "drop6"
  type: "Dropout"
  bottom: "fc6"
  top: "fc6"
  dropout_param {
    dropout_ratio: 0.5
  }
}
layer {
  name: "fc7"
  type: "InnerProduct"
  bottom: "fc6"
  top: "fc7"
  param {
    lr_mult: 1
    decay_mult: 1
  }
  param {
    lr_mult: 2
    decay_mult: 0
  }
  inner_product_param {
    num_output: 4096
    weight_filler {
      type: "gaussian"
      std: 0.005
    }
    bias_filler {
      type: "constant"
      value: 0.1
    }
  }
}
layer {
  name: "relu7"
  type: "ReLU"
  bottom: "fc7"
  top: "fc7"
}
layer {
  name: "drop7"
  type: "Dropout"
  bottom: "fc7"
  top: "fc7"
  dropout_param {
    dropout_ratio: 0.5
  }
}
layer {
  name: "fc8_QY"
  type: "InnerProduct"
  bottom: "fc7"
  top: "fc8_QY"
  param {
    lr_mult: 10
    decay_mult: 1
  }
  param {
    lr_mult: 2
    decay_mult: 0
  }
  inner_product_param {
    num_output: 5
    weight_filler {
      type: "gaussian"
      std: 0.01
    }
    bias_filler {
      type: "constant"
      value: 0
    }
  }
}
layer {
  name: "loss"
  type: "SoftmaxWithLoss"
  bottom: "fc8_QY"
  bottom: "label"
  top: "loss"
}
I0704 17:32:21.304034  4500 layer_factory.hpp:77] Creating layer data
I0704 17:32:21.304108  4500 db_lmdb.cpp:35] Opened lmdb examples/semaphore/dataQY_train_lmdb
I0704 17:32:21.304139  4500 net.cpp:84] Creating Layer data
I0704 17:32:21.304147  4500 net.cpp:380] data -> data
I0704 17:32:21.304165  4500 net.cpp:380] data -> label
I0704 17:32:21.304177  4500 data_transformer.cpp:25] Loading mean file from: examples/semaphore/imagenet_mean.binaryproto
I0704 17:32:21.306783  4500 data_layer.cpp:45] output data size: 256,3,227,227
I0704 17:32:21.540879  4500 net.cpp:122] Setting up data
I0704 17:32:21.540912  4500 net.cpp:129] Top shape: 256 3 227 227 (39574272)
I0704 17:32:21.540917  4500 net.cpp:129] Top shape: 256 (256)
I0704 17:32:21.540920  4500 net.cpp:137] Memory required for data: 158298112
I0704 17:32:21.540928  4500 layer_factory.hpp:77] Creating layer conv1
I0704 17:32:21.540947  4500 net.cpp:84] Creating Layer conv1
I0704 17:32:21.540953  4500 net.cpp:406] conv1 <- data
I0704 17:32:21.540964  4500 net.cpp:380] conv1 -> conv1
I0704 17:32:21.973896  4500 net.cpp:122] Setting up conv1
I0704 17:32:21.973925  4500 net.cpp:129] Top shape: 256 96 55 55 (74342400)
I0704 17:32:21.973928  4500 net.cpp:137] Memory required for data: 455667712
I0704 17:32:21.973949  4500 layer_factory.hpp:77] Creating layer relu1
I0704 17:32:21.973960  4500 net.cpp:84] Creating Layer relu1
I0704 17:32:21.973964  4500 net.cpp:406] relu1 <- conv1
I0704 17:32:21.973969  4500 net.cpp:367] relu1 -> conv1 (in-place)
I0704 17:32:21.974818  4500 net.cpp:122] Setting up relu1
I0704 17:32:21.974828  4500 net.cpp:129] Top shape: 256 96 55 55 (74342400)
I0704 17:32:21.974830  4500 net.cpp:137] Memory required for data: 753037312
I0704 17:32:21.974833  4500 layer_factory.hpp:77] Creating layer norm1
I0704 17:32:21.974841  4500 net.cpp:84] Creating Layer norm1
I0704 17:32:21.974844  4500 net.cpp:406] norm1 <- conv1
I0704 17:32:21.974849  4500 net.cpp:380] norm1 -> norm1
I0704 17:32:21.977054  4500 net.cpp:122] Setting up norm1
I0704 17:32:21.977067  4500 net.cpp:129] Top shape: 256 96 55 55 (74342400)
I0704 17:32:21.977071  4500 net.cpp:137] Memory required for data: 1050406912
I0704 17:32:21.977088  4500 layer_factory.hpp:77] Creating layer pool1
I0704 17:32:21.977095  4500 net.cpp:84] Creating Layer pool1
I0704 17:32:21.977098  4500 net.cpp:406] pool1 <- norm1
I0704 17:32:21.977103  4500 net.cpp:380] pool1 -> pool1
I0704 17:32:21.977139  4500 net.cpp:122] Setting up pool1
I0704 17:32:21.977146  4500 net.cpp:129] Top shape: 256 96 27 27 (17915904)
I0704 17:32:21.977149  4500 net.cpp:137] Memory required for data: 1122070528
I0704 17:32:21.977151  4500 layer_factory.hpp:77] Creating layer conv2
I0704 17:32:21.977160  4500 net.cpp:84] Creating Layer conv2
I0704 17:32:21.977164  4500 net.cpp:406] conv2 <- pool1
I0704 17:32:21.977167  4500 net.cpp:380] conv2 -> conv2
I0704 17:32:21.991595  4500 net.cpp:122] Setting up conv2
I0704 17:32:21.991622  4500 net.cpp:129] Top shape: 256 256 27 27 (47775744)
I0704 17:32:21.991626  4500 net.cpp:137] Memory required for data: 1313173504
I0704 17:32:21.991638  4500 layer_factory.hpp:77] Creating layer relu2
I0704 17:32:21.991647  4500 net.cpp:84] Creating Layer relu2
I0704 17:32:21.991650  4500 net.cpp:406] relu2 <- conv2
I0704 17:32:21.991655  4500 net.cpp:367] relu2 -> conv2 (in-place)
I0704 17:32:21.992959  4500 net.cpp:122] Setting up relu2
I0704 17:32:21.992972  4500 net.cpp:129] Top shape: 256 256 27 27 (47775744)
I0704 17:32:21.992974  4500 net.cpp:137] Memory required for data: 1504276480
I0704 17:32:21.992977  4500 layer_factory.hpp:77] Creating layer norm2
I0704 17:32:21.992985  4500 net.cpp:84] Creating Layer norm2
I0704 17:32:21.992988  4500 net.cpp:406] norm2 <- conv2
I0704 17:32:21.992992  4500 net.cpp:380] norm2 -> norm2
I0704 17:32:21.995251  4500 net.cpp:122] Setting up norm2
I0704 17:32:21.995260  4500 net.cpp:129] Top shape: 256 256 27 27 (47775744)
I0704 17:32:21.995263  4500 net.cpp:137] Memory required for data: 1695379456
I0704 17:32:21.995266  4500 layer_factory.hpp:77] Creating layer pool2
I0704 17:32:21.995275  4500 net.cpp:84] Creating Layer pool2
I0704 17:32:21.995277  4500 net.cpp:406] pool2 <- norm2
I0704 17:32:21.995281  4500 net.cpp:380] pool2 -> pool2
I0704 17:32:21.995311  4500 net.cpp:122] Setting up pool2
I0704 17:32:21.995316  4500 net.cpp:129] Top shape: 256 256 13 13 (11075584)
I0704 17:32:21.995319  4500 net.cpp:137] Memory required for data: 1739681792
I0704 17:32:21.995321  4500 layer_factory.hpp:77] Creating layer conv3
I0704 17:32:21.995331  4500 net.cpp:84] Creating Layer conv3
I0704 17:32:21.995333  4500 net.cpp:406] conv3 <- pool2
I0704 17:32:21.995337  4500 net.cpp:380] conv3 -> conv3
I0704 17:32:22.006002  4500 net.cpp:122] Setting up conv3
I0704 17:32:22.006031  4500 net.cpp:129] Top shape: 256 384 13 13 (16613376)
I0704 17:32:22.006033  4500 net.cpp:137] Memory required for data: 1806135296
I0704 17:32:22.006044  4500 layer_factory.hpp:77] Creating layer relu3
I0704 17:32:22.006052  4500 net.cpp:84] Creating Layer relu3
I0704 17:32:22.006057  4500 net.cpp:406] relu3 <- conv3
I0704 17:32:22.006062  4500 net.cpp:367] relu3 -> conv3 (in-place)
I0704 17:32:22.006203  4500 net.cpp:122] Setting up relu3
I0704 17:32:22.006212  4500 net.cpp:129] Top shape: 256 384 13 13 (16613376)
I0704 17:32:22.006216  4500 net.cpp:137] Memory required for data: 1872588800
I0704 17:32:22.006218  4500 layer_factory.hpp:77] Creating layer conv4
I0704 17:32:22.006228  4500 net.cpp:84] Creating Layer conv4
I0704 17:32:22.006232  4500 net.cpp:406] conv4 <- conv3
I0704 17:32:22.006237  4500 net.cpp:380] conv4 -> conv4
I0704 17:32:22.018962  4500 net.cpp:122] Setting up conv4
I0704 17:32:22.018990  4500 net.cpp:129] Top shape: 256 384 13 13 (16613376)
I0704 17:32:22.018995  4500 net.cpp:137] Memory required for data: 1939042304
I0704 17:32:22.019002  4500 layer_factory.hpp:77] Creating layer relu4
I0704 17:32:22.019012  4500 net.cpp:84] Creating Layer relu4
I0704 17:32:22.019016  4500 net.cpp:406] relu4 <- conv4
I0704 17:32:22.019022  4500 net.cpp:367] relu4 -> conv4 (in-place)
I0704 17:32:22.019173  4500 net.cpp:122] Setting up relu4
I0704 17:32:22.019181  4500 net.cpp:129] Top shape: 256 384 13 13 (16613376)
I0704 17:32:22.019191  4500 net.cpp:137] Memory required for data: 2005495808
I0704 17:32:22.019201  4500 layer_factory.hpp:77] Creating layer conv5
I0704 17:32:22.019212  4500 net.cpp:84] Creating Layer conv5
I0704 17:32:22.019214  4500 net.cpp:406] conv5 <- conv4
I0704 17:32:22.019220  4500 net.cpp:380] conv5 -> conv5
I0704 17:32:22.039500  4500 net.cpp:122] Setting up conv5
I0704 17:32:22.039513  4500 net.cpp:129] Top shape: 256 256 13 13 (11075584)
I0704 17:32:22.039516  4500 net.cpp:137] Memory required for data: 2049798144
I0704 17:32:22.039526  4500 layer_factory.hpp:77] Creating layer relu5
I0704 17:32:22.039531  4500 net.cpp:84] Creating Layer relu5
I0704 17:32:22.039535  4500 net.cpp:406] relu5 <- conv5
I0704 17:32:22.039539  4500 net.cpp:367] relu5 -> conv5 (in-place)
I0704 17:32:22.040146  4500 net.cpp:122] Setting up relu5
I0704 17:32:22.040154  4500 net.cpp:129] Top shape: 256 256 13 13 (11075584)
I0704 17:32:22.040158  4500 net.cpp:137] Memory required for data: 2094100480
I0704 17:32:22.040160  4500 layer_factory.hpp:77] Creating layer pool5
I0704 17:32:22.040166  4500 net.cpp:84] Creating Layer pool5
I0704 17:32:22.040169  4500 net.cpp:406] pool5 <- conv5
I0704 17:32:22.040174  4500 net.cpp:380] pool5 -> pool5
I0704 17:32:22.040210  4500 net.cpp:122] Setting up pool5
I0704 17:32:22.040215  4500 net.cpp:129] Top shape: 256 256 6 6 (2359296)
I0704 17:32:22.040217  4500 net.cpp:137] Memory required for data: 2103537664
I0704 17:32:22.040220  4500 layer_factory.hpp:77] Creating layer fc6
I0704 17:32:22.040230  4500 net.cpp:84] Creating Layer fc6
I0704 17:32:22.040233  4500 net.cpp:406] fc6 <- pool5
I0704 17:32:22.040237  4500 net.cpp:380] fc6 -> fc6
I0704 17:32:22.365046  4500 net.cpp:122] Setting up fc6
I0704 17:32:22.365075  4500 net.cpp:129] Top shape: 256 4096 (1048576)
I0704 17:32:22.365078  4500 net.cpp:137] Memory required for data: 2107731968
I0704 17:32:22.365087  4500 layer_factory.hpp:77] Creating layer relu6
I0704 17:32:22.365095  4500 net.cpp:84] Creating Layer relu6
I0704 17:32:22.365098  4500 net.cpp:406] relu6 <- fc6
I0704 17:32:22.365105  4500 net.cpp:367] relu6 -> fc6 (in-place)
I0704 17:32:22.365819  4500 net.cpp:122] Setting up relu6
I0704 17:32:22.365831  4500 net.cpp:129] Top shape: 256 4096 (1048576)
I0704 17:32:22.365834  4500 net.cpp:137] Memory required for data: 2111926272
I0704 17:32:22.365838  4500 layer_factory.hpp:77] Creating layer drop6
I0704 17:32:22.365844  4500 net.cpp:84] Creating Layer drop6
I0704 17:32:22.365846  4500 net.cpp:406] drop6 <- fc6
I0704 17:32:22.365850  4500 net.cpp:367] drop6 -> fc6 (in-place)
I0704 17:32:22.365875  4500 net.cpp:122] Setting up drop6
I0704 17:32:22.365881  4500 net.cpp:129] Top shape: 256 4096 (1048576)
I0704 17:32:22.365883  4500 net.cpp:137] Memory required for data: 2116120576
I0704 17:32:22.365886  4500 layer_factory.hpp:77] Creating layer fc7
I0704 17:32:22.365892  4500 net.cpp:84] Creating Layer fc7
I0704 17:32:22.365895  4500 net.cpp:406] fc7 <- fc6
I0704 17:32:22.365900  4500 net.cpp:380] fc7 -> fc7
I0704 17:32:22.508409  4500 net.cpp:122] Setting up fc7
I0704 17:32:22.508443  4500 net.cpp:129] Top shape: 256 4096 (1048576)
I0704 17:32:22.508448  4500 net.cpp:137] Memory required for data: 2120314880
I0704 17:32:22.508458  4500 layer_factory.hpp:77] Creating layer relu7
I0704 17:32:22.508471  4500 net.cpp:84] Creating Layer relu7
I0704 17:32:22.508476  4500 net.cpp:406] relu7 <- fc7
I0704 17:32:22.508481  4500 net.cpp:367] relu7 -> fc7 (in-place)
I0704 17:32:22.508699  4500 net.cpp:122] Setting up relu7
I0704 17:32:22.508714  4500 net.cpp:129] Top shape: 256 4096 (1048576)
I0704 17:32:22.508718  4500 net.cpp:137] Memory required for data: 2124509184
I0704 17:32:22.508721  4500 layer_factory.hpp:77] Creating layer drop7
I0704 17:32:22.508728  4500 net.cpp:84] Creating Layer drop7
I0704 17:32:22.508731  4500 net.cpp:406] drop7 <- fc7
I0704 17:32:22.508738  4500 net.cpp:367] drop7 -> fc7 (in-place)
I0704 17:32:22.508764  4500 net.cpp:122] Setting up drop7
I0704 17:32:22.508771  4500 net.cpp:129] Top shape: 256 4096 (1048576)
I0704 17:32:22.508780  4500 net.cpp:137] Memory required for data: 2128703488
I0704 17:32:22.508791  4500 layer_factory.hpp:77] Creating layer fc8_QY
I0704 17:32:22.508800  4500 net.cpp:84] Creating Layer fc8_QY
I0704 17:32:22.508803  4500 net.cpp:406] fc8_QY <- fc7
I0704 17:32:22.508808  4500 net.cpp:380] fc8_QY -> fc8_QY
I0704 17:32:22.509109  4500 net.cpp:122] Setting up fc8_QY
I0704 17:32:22.509124  4500 net.cpp:129] Top shape: 256 5 (1280)
I0704 17:32:22.509127  4500 net.cpp:137] Memory required for data: 2128708608
I0704 17:32:22.509132  4500 layer_factory.hpp:77] Creating layer loss
I0704 17:32:22.509138  4500 net.cpp:84] Creating Layer loss
I0704 17:32:22.509141  4500 net.cpp:406] loss <- fc8_QY
I0704 17:32:22.509145  4500 net.cpp:406] loss <- label
I0704 17:32:22.509151  4500 net.cpp:380] loss -> loss
I0704 17:32:22.509162  4500 layer_factory.hpp:77] Creating layer loss
…
I0704 17:32:22.509814  4500 net.cpp:294] The NetState phase (1) differed from the phase (0) specified by a rule in layer data
I0704 17:32:22.509953  4500 net.cpp:51] Initializing net from parameters: 
name: "AlexNet"
state {
  phase: TEST
}
layer {
  name: "data"
  type: "Data"
  top: "data"
  top: "label"
  include {
    phase: TEST
  }
  transform_param {
    mirror: false
    crop_size: 227
    mean_file: "examples/semaphore/imagenet_mean.binaryproto"
  }
  data_param {
    source: "examples/semaphore/dataQY_val_lmdb"
    batch_size: 512
    backend: LMDB
  }
}
layer {
  name: "conv1"
  type: "Convolution"
  bottom: "data"
  top: "conv1"
  param {
    lr_mult: 1
    decay_mult: 1
  }
  param {
    lr_mult: 2
    decay_mult: 0
  }
  convolution_param {
    num_output: 96
    kernel_size: 11
    stride: 4
    weight_filler {
      type: "gaussian"
      std: 0.01
    }
    bias_filler {
      type: "constant"
      value: 0
    }
  }
}
layer {
  name: "relu1"
  type: "ReLU"
  bottom: "conv1"
  top: "conv1"
}
layer {
  name: "norm1"
  type: "LRN"
  bottom: "conv1"
  top: "norm1"
  lrn_param {
    local_size: 5
    alpha: 0.0001
    beta: 0.75
  }
}
layer {
  name: "pool1"
  type: "Pooling"
  bottom: "norm1"
  top: "pool1"
  pooling_param {
    pool: MAX
    kernel_size: 3
    stride: 2
  }
}
layer {
  name: "conv2"
  type: "Convolution"
  bottom: "pool1"
  top: "conv2"
  param {
    lr_mult: 1
    decay_mult: 1
  }
  param {
    lr_mult: 2
    decay_mult: 0
  }
  convolution_param {
    num_output: 256
    pad: 2
    kernel_size: 5
    group: 2
    weight_filler {
      type: "gaussian"
      std: 0.01
    }
    bias_filler {
      type: "constant"
      value: 0.1
    }
  }
}
layer {
  name: "relu2"
  type: "ReLU"
  bottom: "conv2"
  top: "conv2"
}
layer {
  name: "norm2"
  type: "LRN"
  bottom: "conv2"
  top: "norm2"
  lrn_param {
    local_size: 5
    alpha: 0.0001
    beta: 0.75
  }
}
layer {
  name: "pool2"
  type: "Pooling"
  bottom: "norm2"
  top: "pool2"
  pooling_param {
    pool: MAX
    kernel_size: 3
    stride: 2
  }
}
layer {
  name: "conv3"
  type: "Convolution"
  bottom: "pool2"
  top: "conv3"
  param {
    lr_mult: 1
    decay_mult: 1
  }
  param {
    lr_mult: 2
    decay_mult: 0
  }
  convolution_param {
    num_output: 384
    pad: 1
    kernel_size: 3
    weight_filler {
      type: "gaussian"
      std: 0.01
    }
    bias_filler {
      type: "constant"
      value: 0
    }
  }
}
layer {
  name: "relu3"
  type: "ReLU"
  bottom: "conv3"
  top: "conv3"
}
layer {
  name: "conv4"
  type: "Convolution"
  bottom: "conv3"
  top: "conv4"
  param {
    lr_mult: 1
    decay_mult: 1
  }
  param {
    lr_mult: 2
    decay_mult: 0
  }
  convolution_param {
    num_output: 384
    pad: 1
    kernel_size: 3
    group: 2
    weight_filler {
      type: "gaussian"
      std: 0.01
    }
    bias_filler {
      type: "constant"
      value: 0.1
    }
  }
}
layer {
  name: "relu4"
  type: "ReLU"
  bottom: "conv4"
  top: "conv4"
}
layer {
  name: "conv5"
  type: "Convolution"
  bottom: "conv4"
  top: "conv5"
  param {
    lr_mult: 1
    decay_mult: 1
  }
  param {
    lr_mult: 2
    decay_mult: 0
  }
  convolution_param {
    num_output: 256
    pad: 1
    kernel_size: 3
    group: 2
    weight_filler {
      type: "gaussian"
      std: 0.01
    }
    bias_filler {
      type: "constant"
      value: 0.1
    }
  }
}
layer {
  name: "relu5"
  type: "ReLU"
  bottom: "conv5"
  top: "conv5"
}
layer {
  name: "pool5"
  type: "Pooling"
  bottom: "conv5"
  top: "pool5"
  pooling_param {
    pool: MAX
    kernel_size: 3
    stride: 2
  }
}
layer {
  name: "fc6"
  type: "InnerProduct"
  bottom: "pool5"
  top: "fc6"
  param {
    lr_mult: 1
    decay_mult: 1
  }
  param {
    lr_mult: 2
    decay_mult: 0
  }
  inner_product_param {
    num_output: 4096
    weight_filler {
      type: "gaussian"
      std: 0.005
    }
    bias_filler {
      type: "constant"
      value: 0.1
    }
  }
}
layer {
  name: "relu6"
  type: "ReLU"
  bottom: "fc6"
  top: "fc6"
}
layer {
  name: "drop6"
  type: "Dropout"
  bottom: "fc6"
  top: "fc6"
  dropout_param {
    dropout_ratio: 0.5
  }
}
layer {
  name: "fc7"
  type: "InnerProduct"
  bottom: "fc6"
  top: "fc7"
  param {
    lr_mult: 1
    decay_mult: 1
  }
  param {
    lr_mult: 2
    decay_mult: 0
  }
  inner_product_param {
    num_output: 4096
    weight_filler {
      type: "gaussian"
      std: 0.005
    }
    bias_filler {
      type: "constant"
      value: 0.1
    }
  }
}
layer {
  name: "relu7"
  type: "ReLU"
  bottom: "fc7"
  top: "fc7"
}
layer {
  name: "drop7"
  type: "Dropout"
  bottom: "fc7"
  top: "fc7"
  dropout_param {
    dropout_ratio: 0.5
  }
}
layer {
  name: "fc8_QY"
  type: "InnerProduct"
  bottom: "fc7"
  top: "fc8_QY"
  param {
    lr_mult: 10
    decay_mult: 1
  }
  param {
    lr_mult: 2
    decay_mult: 0
  }
  inner_product_param {
    num_output: 5
    weight_filler {
      type: "gaussian"
      std: 0.01
    }
    bias_filler {
      type: "constant"
      value: 0
    }
  }
}
layer {
  name: "accuracy"
  type: "Accuracy"
  bottom: "fc8_QY"
  bottom: "label"
  top: "accuracy"
  include {
    phase: TEST
  }
}
layer {
  name: "loss"
  type: "SoftmaxWithLoss"
  bottom: "fc8_QY"
  bottom: "label"
  top: "loss"
}
I0704 17:32:22.510053  4500 layer_factory.hpp:77] Creating layer data
I0704 17:32:22.510103  4500 db_lmdb.cpp:35] Opened lmdb examples/semaphore/dataQY_val_lmdb
I0704 17:32:22.510129  4500 net.cpp:84] Creating Layer data
I0704 17:32:22.510135  4500 net.cpp:380] data -> data
I0704 17:32:22.510143  4500 net.cpp:380] data -> label
I0704 17:32:22.510150  4500 data_transformer.cpp:25] Loading mean file from: examples/semaphore/imagenet_mean.binaryproto
I0704 17:32:22.512187  4500 data_layer.cpp:45] output data size: 512,3,227,227
I0704 17:32:22.980350  4500 net.cpp:122] Setting up data
I0704 17:32:22.980379  4500 net.cpp:129] Top shape: 512 3 227 227 (79148544)
I0704 17:32:22.980383  4500 net.cpp:129] Top shape: 512 (512)
I0704 17:32:22.980386  4500 net.cpp:137] Memory required for data: 316596224
I0704 17:32:22.980391  4500 layer_factory.hpp:77] Creating layer label_data_1_split
I0704 17:32:22.980402  4500 net.cpp:84] Creating Layer label_data_1_split
I0704 17:32:22.980406  4500 net.cpp:406] label_data_1_split <- label
I0704 17:32:22.980412  4500 net.cpp:380] label_data_1_split -> label_data_1_split_0
I0704 17:32:22.980419  4500 net.cpp:380] label_data_1_split -> label_data_1_split_1
I0704 17:32:22.980525  4500 net.cpp:122] Setting up label_data_1_split
I0704 17:32:22.980532  4500 net.cpp:129] Top shape: 512 (512)
I0704 17:32:22.980535  4500 net.cpp:129] Top shape: 512 (512)
I0704 17:32:22.980537  4500 net.cpp:137] Memory required for data: 316600320
I0704 17:32:22.980540  4500 layer_factory.hpp:77] Creating layer conv1
I0704 17:32:22.980551  4500 net.cpp:84] Creating Layer conv1
I0704 17:32:22.980553  4500 net.cpp:406] conv1 <- data
I0704 17:32:22.980558  4500 net.cpp:380] conv1 -> conv1
I0704 17:32:23.022608  4500 net.cpp:122] Setting up conv1
I0704 17:32:23.022625  4500 net.cpp:129] Top shape: 512 96 55 55 (148684800)
I0704 17:32:23.022629  4500 net.cpp:137] Memory required for data: 911339520
I0704 17:32:23.022639  4500 layer_factory.hpp:77] Creating layer relu1
I0704 17:32:23.022644  4500 net.cpp:84] Creating Layer relu1
I0704 17:32:23.022647  4500 net.cpp:406] relu1 <- conv1
I0704 17:32:23.022650  4500 net.cpp:367] relu1 -> conv1 (in-place)
I0704 17:32:23.024710  4500 net.cpp:122] Setting up relu1
I0704 17:32:23.024718  4500 net.cpp:129] Top shape: 512 96 55 55 (148684800)
I0704 17:32:23.024721  4500 net.cpp:137] Memory required for data: 1506078720
I0704 17:32:23.024724  4500 layer_factory.hpp:77] Creating layer norm1
I0704 17:32:23.024731  4500 net.cpp:84] Creating Layer norm1
I0704 17:32:23.024734  4500 net.cpp:406] norm1 <- conv1
I0704 17:32:23.024739  4500 net.cpp:380] norm1 -> norm1
I0704 17:32:23.027040  4500 net.cpp:122] Setting up norm1
I0704 17:32:23.027058  4500 net.cpp:129] Top shape: 512 96 55 55 (148684800)
I0704 17:32:23.027062  4500 net.cpp:137] Memory required for data: 2100817920
I0704 17:32:23.027067  4500 layer_factory.hpp:77] Creating layer pool1
I0704 17:32:23.027076  4500 net.cpp:84] Creating Layer pool1
I0704 17:32:23.027079  4500 net.cpp:406] pool1 <- norm1
I0704 17:32:23.027086  4500 net.cpp:380] pool1 -> pool1
I0704 17:32:23.027130  4500 net.cpp:122] Setting up pool1
I0704 17:32:23.027138  4500 net.cpp:129] Top shape: 512 96 27 27 (35831808)
I0704 17:32:23.027143  4500 net.cpp:137] Memory required for data: 2244145152
I0704 17:32:23.027146  4500 layer_factory.hpp:77] Creating layer conv2
I0704 17:32:23.027158  4500 net.cpp:84] Creating Layer conv2
I0704 17:32:23.027161  4500 net.cpp:406] conv2 <- pool1
I0704 17:32:23.027168  4500 net.cpp:380] conv2 -> conv2
I0704 17:32:23.038905  4500 net.cpp:122] Setting up conv2
I0704 17:32:23.038942  4500 net.cpp:129] Top shape: 512 256 27 27 (95551488)
I0704 17:32:23.038947  4500 net.cpp:137] Memory required for data: 2626351104
I0704 17:32:23.038972  4500 layer_factory.hpp:77] Creating layer relu2
I0704 17:32:23.038991  4500 net.cpp:84] Creating Layer relu2
I0704 17:32:23.038997  4500 net.cpp:406] relu2 <- conv2
I0704 17:32:23.039005  4500 net.cpp:367] relu2 -> conv2 (in-place)
I0704 17:32:23.039903  4500 net.cpp:122] Setting up relu2
I0704 17:32:23.039918  4500 net.cpp:129] Top shape: 512 256 27 27 (95551488)
I0704 17:32:23.039922  4500 net.cpp:137] Memory required for data: 3008557056
I0704 17:32:23.039927  4500 layer_factory.hpp:77] Creating layer norm2
I0704 17:32:23.039937  4500 net.cpp:84] Creating Layer norm2
I0704 17:32:23.039942  4500 net.cpp:406] norm2 <- conv2
I0704 17:32:23.039948  4500 net.cpp:380] norm2 -> norm2
I0704 17:32:23.041111  4500 net.cpp:122] Setting up norm2
I0704 17:32:23.041128  4500 net.cpp:129] Top shape: 512 256 27 27 (95551488)
I0704 17:32:23.041131  4500 net.cpp:137] Memory required for data: 3390763008
I0704 17:32:23.041136  4500 layer_factory.hpp:77] Creating layer pool2
I0704 17:32:23.041143  4500 net.cpp:84] Creating Layer pool2
I0704 17:32:23.041146  4500 net.cpp:406] pool2 <- norm2
I0704 17:32:23.041152  4500 net.cpp:380] pool2 -> pool2
I0704 17:32:23.041193  4500 net.cpp:122] Setting up pool2
I0704 17:32:23.041201  4500 net.cpp:129] Top shape: 512 256 13 13 (22151168)
I0704 17:32:23.041205  4500 net.cpp:137] Memory required for data: 3479367680
I0704 17:32:23.041208  4500 layer_factory.hpp:77] Creating layer conv3
I0704 17:32:23.041220  4500 net.cpp:84] Creating Layer conv3
I0704 17:32:23.041224  4500 net.cpp:406] conv3 <- pool2
I0704 17:32:23.041230  4500 net.cpp:380] conv3 -> conv3
I0704 17:32:23.059092  4500 net.cpp:122] Setting up conv3
I0704 17:32:23.059125  4500 net.cpp:129] Top shape: 512 384 13 13 (33226752)
I0704 17:32:23.059130  4500 net.cpp:137] Memory required for data: 3612274688
I0704 17:32:23.059147  4500 layer_factory.hpp:77] Creating layer relu3
I0704 17:32:23.059159  4500 net.cpp:84] Creating Layer relu3
I0704 17:32:23.059165  4500 net.cpp:406] relu3 <- conv3
I0704 17:32:23.059171  4500 net.cpp:367] relu3 -> conv3 (in-place)
I0704 17:32:23.060647  4500 net.cpp:122] Setting up relu3
I0704 17:32:23.060659  4500 net.cpp:129] Top shape: 512 384 13 13 (33226752)
I0704 17:32:23.060663  4500 net.cpp:137] Memory required for data: 3745181696
I0704 17:32:23.060667  4500 layer_factory.hpp:77] Creating layer conv4
I0704 17:32:23.060679  4500 net.cpp:84] Creating Layer conv4
I0704 17:32:23.060683  4500 net.cpp:406] conv4 <- conv3
I0704 17:32:23.060689  4500 net.cpp:380] conv4 -> conv4
I0704 17:32:23.081140  4500 net.cpp:122] Setting up conv4
I0704 17:32:23.081172  4500 net.cpp:129] Top shape: 512 384 13 13 (33226752)
I0704 17:32:23.081176  4500 net.cpp:137] Memory required for data: 3878088704
I0704 17:32:23.081187  4500 layer_factory.hpp:77] Creating layer relu4
I0704 17:32:23.081198  4500 net.cpp:84] Creating Layer relu4
I0704 17:32:23.081203  4500 net.cpp:406] relu4 <- conv4
I0704 17:32:23.081210  4500 net.cpp:367] relu4 -> conv4 (in-place)
I0704 17:32:23.082653  4500 net.cpp:122] Setting up relu4
I0704 17:32:23.082665  4500 net.cpp:129] Top shape: 512 384 13 13 (33226752)
I0704 17:32:23.082669  4500 net.cpp:137] Memory required for data: 4010995712
I0704 17:32:23.082672  4500 layer_factory.hpp:77] Creating layer conv5
I0704 17:32:23.082684  4500 net.cpp:84] Creating Layer conv5
I0704 17:32:23.082687  4500 net.cpp:406] conv5 <- conv4
I0704 17:32:23.082695  4500 net.cpp:380] conv5 -> conv5
I0704 17:32:23.098999  4500 net.cpp:122] Setting up conv5
I0704 17:32:23.099028  4500 net.cpp:129] Top shape: 512 256 13 13 (22151168)
I0704 17:32:23.099032  4500 net.cpp:137] Memory required for data: 4099600384
I0704 17:32:23.099047  4500 layer_factory.hpp:77] Creating layer relu5
I0704 17:32:23.099057  4500 net.cpp:84] Creating Layer relu5
I0704 17:32:23.099061  4500 net.cpp:406] relu5 <- conv5
I0704 17:32:23.099068  4500 net.cpp:367] relu5 -> conv5 (in-place)
I0704 17:32:23.100554  4500 net.cpp:122] Setting up relu5
I0704 17:32:23.100564  4500 net.cpp:129] Top shape: 512 256 13 13 (22151168)
I0704 17:32:23.100567  4500 net.cpp:137] Memory required for data: 4188205056
I0704 17:32:23.100589  4500 layer_factory.hpp:77] Creating layer pool5
I0704 17:32:23.100600  4500 net.cpp:84] Creating Layer pool5
I0704 17:32:23.100603  4500 net.cpp:406] pool5 <- conv5
I0704 17:32:23.100608  4500 net.cpp:380] pool5 -> pool5
I0704 17:32:23.100669  4500 net.cpp:122] Setting up pool5
I0704 17:32:23.100677  4500 net.cpp:129] Top shape: 512 256 6 6 (4718592)
I0704 17:32:23.100679  4500 net.cpp:137] Memory required for data: 4207079424
I0704 17:32:23.100682  4500 layer_factory.hpp:77] Creating layer fc6
I0704 17:32:23.100689  4500 net.cpp:84] Creating Layer fc6
I0704 17:32:23.100693  4500 net.cpp:406] fc6 <- pool5
I0704 17:32:23.100698  4500 net.cpp:380] fc6 -> fc6
I0704 17:32:23.440047  4500 net.cpp:122] Setting up fc6
I0704 17:32:23.440084  4500 net.cpp:129] Top shape: 512 4096 (2097152)
I0704 17:32:23.440088  4500 net.cpp:137] Memory required for data: 4215468032
I0704 17:32:23.440096  4500 layer_factory.hpp:77] Creating layer relu6
I0704 17:32:23.440106  4500 net.cpp:84] Creating Layer relu6
I0704 17:32:23.440110  4500 net.cpp:406] relu6 <- fc6
I0704 17:32:23.440116  4500 net.cpp:367] relu6 -> fc6 (in-place)
I0704 17:32:23.440346  4500 net.cpp:122] Setting up relu6
I0704 17:32:23.440354  4500 net.cpp:129] Top shape: 512 4096 (2097152)
I0704 17:32:23.440356  4500 net.cpp:137] Memory required for data: 4223856640
I0704 17:32:23.440359  4500 layer_factory.hpp:77] Creating layer drop6
I0704 17:32:23.440366  4500 net.cpp:84] Creating Layer drop6
I0704 17:32:23.440368  4500 net.cpp:406] drop6 <- fc6
I0704 17:32:23.440372  4500 net.cpp:367] drop6 -> fc6 (in-place)
I0704 17:32:23.440395  4500 net.cpp:122] Setting up drop6
I0704 17:32:23.440402  4500 net.cpp:129] Top shape: 512 4096 (2097152)
I0704 17:32:23.440403  4500 net.cpp:137] Memory required for data: 4232245248
I0704 17:32:23.440407  4500 layer_factory.hpp:77] Creating layer fc7
I0704 17:32:23.440412  4500 net.cpp:84] Creating Layer fc7
I0704 17:32:23.440415  4500 net.cpp:406] fc7 <- fc6
I0704 17:32:23.440419  4500 net.cpp:380] fc7 -> fc7
I0704 17:32:23.593355  4500 net.cpp:122] Setting up fc7
I0704 17:32:23.593389  4500 net.cpp:129] Top shape: 512 4096 (2097152)
I0704 17:32:23.593392  4500 net.cpp:137] Memory required for data: 4240633856
I0704 17:32:23.593401  4500 layer_factory.hpp:77] Creating layer relu7
I0704 17:32:23.593410  4500 net.cpp:84] Creating Layer relu7
I0704 17:32:23.593413  4500 net.cpp:406] relu7 <- fc7
I0704 17:32:23.593420  4500 net.cpp:367] relu7 -> fc7 (in-place)
I0704 17:32:23.595849  4500 net.cpp:122] Setting up relu7
I0704 17:32:23.595870  4500 net.cpp:129] Top shape: 512 4096 (2097152)
I0704 17:32:23.595872  4500 net.cpp:137] Memory required for data: 4249022464
I0704 17:32:23.595876  4500 layer_factory.hpp:77] Creating layer drop7
I0704 17:32:23.595885  4500 net.cpp:84] Creating Layer drop7
I0704 17:32:23.595888  4500 net.cpp:406] drop7 <- fc7
I0704 17:32:23.595893  4500 net.cpp:367] drop7 -> fc7 (in-place)
I0704 17:32:23.595934  4500 net.cpp:122] Setting up drop7
I0704 17:32:23.595940  4500 net.cpp:129] Top shape: 512 4096 (2097152)
I0704 17:32:23.595943  4500 net.cpp:137] Memory required for data: 4257411072
I0704 17:32:23.595945  4500 layer_factory.hpp:77] Creating layer fc8_QY
I0704 17:32:23.595952  4500 net.cpp:84] Creating Layer fc8_QY
I0704 17:32:23.595955  4500 net.cpp:406] fc8_QY <- fc7
I0704 17:32:23.595959  4500 net.cpp:380] fc8_QY -> fc8_QY
I0704 17:32:23.596232  4500 net.cpp:122] Setting up fc8_QY
I0704 17:32:23.596240  4500 net.cpp:129] Top shape: 512 5 (2560)
I0704 17:32:23.596242  4500 net.cpp:137] Memory required for data: 4257421312
I0704 17:32:23.596251  4500 layer_factory.hpp:77] Creating layer fc8_QY_fc8_QY_0_split
I0704 17:32:23.596256  4500 net.cpp:84] Creating Layer fc8_QY_fc8_QY_0_split
I0704 17:32:23.596258  4500 net.cpp:406] fc8_QY_fc8_QY_0_split <- fc8_QY
I0704 17:32:23.596262  4500 net.cpp:380] fc8_QY_fc8_QY_0_split -> fc8_QY_fc8_QY_0_split_0
I0704 17:32:23.596267  4500 net.cpp:380] fc8_QY_fc8_QY_0_split -> fc8_QY_fc8_QY_0_split_1
I0704 17:32:23.596305  4500 net.cpp:122] Setting up fc8_QY_fc8_QY_0_split
I0704 17:32:23.596321  4500 net.cpp:129] Top shape: 512 5 (2560)
I0704 17:32:23.596324  4500 net.cpp:129] Top shape: 512 5 (2560)
I0704 17:32:23.596326  4500 net.cpp:137] Memory required for data: 4257441792
I0704 17:32:23.596329  4500 layer_factory.hpp:77] Creating layer accuracy
I0704 17:32:23.596335  4500 net.cpp:84] Creating Layer accuracy
I0704 17:32:23.596338  4500 net.cpp:406] accuracy <- fc8_QY_fc8_QY_0_split_0
I0704 17:32:23.596341  4500 net.cpp:406] accuracy <- label_data_1_split_0
I0704 17:32:23.596345  4500 net.cpp:380] accuracy -> accuracy
…
